…
Figure 6.9 Adapting a GPT model for spam classification by altering its architecture. Initially, the model’s linear
output layer mapped 768 hidden units to a vocabulary of 50,257 tokens. To detect spam, we replace this layer
with a new output layer that maps the same 768 hidden units to just two classes, representing “spam” and “not
spam.”




                         Licensed to Christopher Funderburk <cmfunderburk@gmail.com>
                        6.5 Adding a classification head                                     185


Before we attempt the modification shown in figure 6.9, let’s print the model architec-
ture via print(model):

GPTModel(
  (tok_emb): Embedding(50257, 768)
  (pos_emb): Embedding(1024, 768)
  (drop_emb): Dropout(p=0.0, inplace=False)
  (trf_blocks): Sequential(
...
    (11): TransformerBlock(
      (att): MultiHeadAttention(
        (W_query): Linear(in_features=768, out_features=768, bias=True)
        (W_key): Linear(in_features=768, out_features=768, bias=True)
        (W_value): Linear(in_features=768, out_features=768, bias=True)
        (out_proj): Linear(in_features=768, out_features=768, bias=True)
        (dropout): Dropout(p=0.0, inplace=False)
      )
      (ff): FeedForward(
        (layers): Sequential(
          (0): Linear(in_features=768, out_features=3072, bias=True)
          (1): GELU()
          (2): Linear(in_features=3072, out_features=768, bias=True)
        )
      )
      (norm1): LayerNorm()
      (norm2): LayerNorm()
      (drop_resid): Dropout(p=0.0, inplace=False)
    )
  )
  (final_norm): LayerNorm()
  (out_head): Linear(in_features=768, out_features=50257, bias=False)
)

This output neatly lays out the architecture we laid out in chapter 4. As previously dis-
cussed, the GPTModel consists of embedding layers followed by 12 identical transformer
blocks (only the last block is shown for brevity), followed by a final LayerNorm and the
output layer, out_head.
    Next, we replace the out_head with a new output layer (see figure 6.9) that we will
…
